…
amp":1604474408429,"user":{"displayName":"Ankit Mishra","photoUrl":"https://lh3.googleusercontent.com/a-/AOh14Gj2-BPUB24Nb2m9nv0HdWn-cRfQoBp0ocGjhX-k=s64","userId":"11667803432738710858"},"user_tz":-330},"id":"KB76RJgLbm4A","outputId":"4e9d4868-1574-4aa1-ffc8-1f5877f3a530"},"outputs":[{"name":"stdout","output_type":"stream","text":["Model: \"sequential\"\n","_________________________________________________________________\n","Layer (type)                 Output Shape              Param #   \n","=================================================================\n","embedding (Embedding)        (None, 30, 100)           2094400   \n","_________________________________________________________________\n","conv1d (Conv1D)              (None, 29, 64)            12864     \n","_________________________________________________________________\n","max_pooling1d (MaxPooling1D) (None, 29, 64)            0         \n","_________________________________________________________________\n","conv1d_1 (Conv1D)            (None, 28, 64)            8256      \n","_________________________________________________________________\n","max_pooling1d_1 (MaxPooling1 (None, 28, 64)            0         \n","_________________________________________________________________\n","flatten (Flatten)            (None, 1792)              0         \n","_________________________________________________________________\n","dense (Dense)                (None, 64)                114752    \n","_________________________________________________________________\n","dense_1 (Dense)              (None, 1)                 65        \n","=================================================================\n","Total params: 2,230,337\n","Trainable params: 2,230,337\n","Non-trainable params: 0\n","_________________________________________________________________\n"]}],"source":["model = Sequential()\n","model.add(Embedding(input_dim = words + 1, output_dim = 100,input_length=max_length))\n","model.add(Conv1D(filters =64,ke
…
